verbose_output/test_qasrl_to_multiwoz/query/layer_4/best_query_layer4.pt (torch, 12789 bytes, 2 tensors)

W bf16 [7, 768]
0	0xbca6	-0.020263672
1	0xbcf2	-0.029541016
2	0x3c13	0.008972168
3	0x3b09	0.002090454
4	0xbbeb	-0.007171631
5	0x3bcb	0.0061950684
6	0xbca7	-0.020385742
7	0xbc1f	-0.00970459
8	0x3c2d	0.010559082
9	0x3bea	0.0071411133
10	0xbc80	-0.015625
11	0xbb77	-0.003768921
12	0x3caf	0.021362305
13	0xbc3b	-0.011413574
14	0x3d01	0.03149414
15	0x3b92	0.0044555664
16	0x3c98	0.018554688
17	0xbc87	-0.016479492
18	0x3c91	0.017700195
19	0xbcc9	-0.024536133
20	0x38ee	0.000113487244
21	0x3b31	0.0027008057
22	0xb9ab	-0.00032615662
23	0xbc6c	-0.014404297
24	0xbbfa	-0.0076293945
25	0xbc54	-0.012939453
26	0x3cc1	0.02355957
27	0xbb0b	-0.0021209717
28	0xbccf	-0.025268555
29	0xbc55	-0.013000488
30	0x3b7a	0.0038146973
31	0xbc78	-0.015136719
32	0x3be4	0.006958008
33	0x3c37	0.011169434
34	0xbb79	-0.0037994385
35	0x3d67	0.056396484
36	0x3cd5	0.026000977
37	0xba49	-0.00076675415
38	0x3bac	0.0052490234
39	0x3d11	0.03540039
40	0x3d0f	0.03491211
41	0xbb92	-0.0044555664
42	0xbc0c	-0.008544922
43	0xbb7d	-0.0038604736
44	0xbd19	-0.037353516
45	0xbc9e	-0.01928711
46	0xbc5a	-0.013305664
47	0x3c60	0.013671875
48	0x3a2a	0.00064849854
49	0x3d00	0.03125
50	0xbce7	-0.028198242
51	0x3ccf	0.025268555
52	0x3bb4	0.005493164
53	0xbcb2	-0.021728516
54	0x3c54	0.012939453
55	0xbc2a	-0.010375977
56	0x3d03	0.031982422
57	0xbba1	-0.00491333
58	0xbb8e	-0.004333496
59	0xbc9e	-0.01928711
60	0x3c3e	0.01159668
61	0xbb90	-0.0043945312
62	0x3b8f	0.0043640137
63	0x3d28	0.041015625
64	0x3ce0	0.02734375
65	0xbb2c	-0.0026245117
66	0x3c04	0.008056641
67	0xbc8f	-0.017456055
68	0xbbc1	-0.0058898926
69	0xbbb0	-0.0053710938
70	0xbd3d	-0.046142578
71	0xbbfc	-0.0076904297
72	0x3bf2	0.007385254
73	0x3c1e	0.009643555
74	0x3ccd	0.025024414
75	0x3aba	0.0014190674
76	0x3c41	0.011779785
77	0x3be1	0.006866455
78	0x3c9c	0.019042969
79	0xbd5d	-0.053955078
80	0xbcbc	-0.022949219
81	0x3c1a	0.009399414
82	0xbd3b	-0.045654297
83	0xbbe4	-0.006958008
84	0x3cff	0.03112793
85	0x3c0a	0.008422852
86	0xbd0a	-0.033691406
87	0x3a92	0.0011138916
88	0xbcd3	-0.025756836
89	0x3cd9	0.026489258
90	0x3d02	0.03173828
91	0x3a1a	0.0005874634
92	0x3a25	0.00062942505
93	0xbab6	-0.0013885498
94	0xbbe6	-0.007019043
95	0x3c88	0.016601562
96	0xbc5f	-0.01361084
97	0xba4f	-0.00078964233
98	0x3a83	0.0009994507
99	0x3cf6	0.030029297
100	0x3d07	0.032958984
101	0xbc86	-0.016357422
102	0x3c64	0.013916016
103	0x3c14	0.009033203
104	0xbc58	-0.013183594
105	0xbb97	-0.0046081543
106	0xbc6f	-0.014587402
107	0xbccb	-0.024780273
108	0x3c41	0.011779785
109	0x3ca8	0.020507812
110	0x3d17	0.036865234
111	0x3bd3	0.006439209
112	0x3c3b	0.011413574
113	0x3d06	0.032714844
114	0xbc64	-0.013916016
115	0xbd5a	-0.053222656
116	0x3c8b	0.016967773
117	0x3cdb	0.026733398
118	0xbc25	-0.010070801
119	0x3ca0	0.01953125
120	0xbd09	-0.033447266
121	0xbc84	-0.016113281
122	0x3d03	0.031982422
123	0x3ccd	0.025024414
124	0x3d56	0.052246094
125	0x3c94	0.018066406
126	0xbbaa	-0.0051879883
127	0xbd17	-0.036865234
128	0xbab7	-0.0013961792
129	0xbc87	-0.016479492
130	0xbba7	-0.0050964355
131	0x3d38	0.044921875
132	0xbbf5	-0.0074768066
133	0xbcf4	-0.029785156
134	0x3c25	0.010070801
135	0xbc26	-0.010131836
136	0x3d68	0.056640625
137	0x3ce9	0.028442383
138	0x3cac	0.020996094
139	0x3bec	0.0072021484
140	0x3c36	0.011108398
141	0x3a01	0.00049209595
142	0xbaff	-0.0019454956
143	0xbb40	-0.0029296875
144	0x3ce3	0.027709961
145	0xbc54	-0.012939453
146	0x3cd2	0.025634766
147	0x3d36	0.044433594
148	0x3c72	0.014770508
149	0x3cc7	0.024291992
150	0x3c6b	0.014343262
151	0x3cab	0.020874023
152	0x3cea	0.028564453
153	0x3b47	0.003036499
154	0x3b88	0.0041503906
155	0xbccb	-0.024780273
156	0xbc47	-0.012145996
157	0xbb19	-0.0023345947
158	0x3cd1	0.025512695
159	0x3c78	0.015136719
160	0xbcb3	-0.021850586
161	0x3b5b	0.0033416748
162	0x3c17	0.009216309
163	0x3ba2	0.0049438477
164	0xbc9f	-0.01940918
165	0xbbe5	-0.0069885254
166	0xbc42	-0.01184082
167	0x3cc2	0.02368164
168	0xbc5e	-0.013549805
169	0x3d0c	0.034179688
170	0xbc5c	-0.013427734
171	0x3b13	0.002243042
172	0x3cae	0.021240234
173	0xbc79	-0.015197754
174	0x3c17	0.009216309
175	0xbd3f	-0.04663086
176	0x3d2d	0.042236328
177	0x3c19	0.009338379
178	0x3cae	0.021240234
179	0x3d2c	0.041992188
180	0x3c98	0.018554688
181	0xbcf8	-0.030273438
182	0xbcde	-0.02709961
183	0x3caa	0.020751953
184	0x3b45	0.0030059814
185	0x3b40	0.0029296875
186	0xbca3	-0.019897461
187	0xbc3a	-0.011352539
188	0x3a61	0.0008583069
189	0xbc2f	-0.010681152
190	0x3c9f	0.01940918
191	0x3c53	0.012878418
192	0x3ace	0.0015716553
193	0xbccc	-0.024902344
194	0xb8da	-0.0001039505
195	0x3ca0	0.01953125
196	0x3ae6	0.0017547607
197	0x3cc9	0.024536133
198	0xbce3	-0.027709961
199	0xbd00	-0.03125
200	0x3cc7	0.024291992
201	0x3cd1	0.025512695
202	0xbbaf	-0.005340576
203	0xbbb5	-0.0055236816
204	0x3c5f	0.01361084
205	0xb9dc	-0.0004196167
206	0x3cd6	0.026123047
207	0xbb84	-0.0040283203
208	0x3cee	0.029052734
209	0x3d33	0.043701172
210	0xbca3	-0.019897461
211	0xbc07	-0.008239746
212	0xbc07	-0.008239746
213	0x3cc0	0.0234375
214	0xbc60	-0.013671875
215	0x3c0c	0.008544922
216	0x3cda	0.026611328
217	0x3c65	0.013977051
218	0xbca4	-0.020019531
219	0x3d2c	0.041992188
220	0xbd3e	-0.04638672
221	0xbc15	-0.009094238
222	0x3cb8	0.022460938
223	0x3bf4	0.007446289
224	0x3c4d	0.012512207
225	0xbcc2	-0.02368164
226	0x3c02	0.00793457
227	0xbb64	-0.003479004
228	0x3cd8	0.026367188
229	0xbba4	-0.005004883
230	0xbbd2	-0.0064086914
231	0xbc03	-0.0079956055
232	0x3c33	0.010925293
233	0x3c88	0.016601562
234	0x3c4c	0.012451172
235	0x3c74	0.014892578
236	0x3cbf	0.02331543
237	0xbd45	-0.048095703
238	0x3cd5	0.026000977
239	0x3adf	0.001701355
240	0xbd56	-0.052246094
241	0x3d22	0.03955078
242	0xbba5	-0.0050354004
243	0xbd1e	-0.03857422
244	0xbd15	-0.036376953
245	0x3c21	0.00982666
246	0x3d05	0.032470703
247	0x3ca2	0.01977539
248	0x3c4e	0.012573242
249	0x3cf8	0.030273438
250	0xbc7a	-0.015258789
251	0x3c3e	0.01159668
252	0x3c91	0.017700195
253	0xbd0b	-0.033935547
254	0xbcc3	-0.023803711
255	0x38c3	9.2983246e-05

b bf16 [7]
0	0xbabc	-0.0014343262
1	0xbb93	-0.004486084
2	0xbc3c	-0.011474609
3	0xbc26	-0.010131836
4	0xbc3f	-0.011657715
5	0xbc44	-0.011962891
6	0xbc3d	-0.0115356445
