verbose_output/test_qasrl_to_multiwoz/query/layer_5/best_query_layer5.pt (torch, 12789 bytes, 2 tensors)

W bf16 [7, 768]
0	0xbc45	-0.012023926
1	0xbcd9	-0.026489258
2	0x3b89	0.004180908
3	0xbae2	-0.0017242432
4	0xbc1e	-0.009643555
5	0x3c17	0.009216309
6	0xbcbd	-0.023071289
7	0xbc57	-0.013122559
8	0x3be7	0.0070495605
9	0x3bb8	0.0056152344
10	0xbcb1	-0.021606445
11	0xbb79	-0.0037994385
12	0x3cc6	0.024169922
13	0xbc9b	-0.018920898
14	0x3d0b	0.033935547
15	0x3bf7	0.007537842
16	0x3cb5	0.022094727
17	0xbca8	-0.020507812
18	0x3ca8	0.020507812
19	0xbce6	-0.028076172
20	0x3b6d	0.003616333
21	0xbbbe	-0.00579834
22	0x3bc9	0.006134033
23	0xbc93	-0.017944336
24	0xbc27	-0.010192871
25	0xbc11	-0.008850098
26	0x3c89	0.016723633
27	0xbbc3	-0.0059509277
28	0xbcb0	-0.021484375
29	0xbc1d	-0.0095825195
30	0x3b22	0.0024719238
31	0xbc9a	-0.018798828
32	0x3c37	0.011169434
33	0x3c07	0.008239746
34	0x3aa6	0.0012664795
35	0x3d55	0.052001953
36	0x3cb7	0.022338867
37	0xbb99	-0.0046691895
38	0x3b1c	0.002380371
39	0x3d04	0.032226562
40	0x3d03	0.031982422
41	0xbbf5	-0.0074768066
42	0xbc3e	-0.01159668
43	0xbbe9	-0.0071105957
44	0xbd26	-0.040527344
45	0xbc6d	-0.014465332
46	0xbc8a	-0.016845703
47	0x3c7d	0.0154418945
48	0x3b7a	0.0038146973
49	0x3cdf	0.02722168
50	0xbcc1	-0.02355957
51	0x3cba	0.022705078
52	0x3c28	0.010253906
53	0xbcca	-0.024658203
54	0x3c81	0.01574707
55	0xbc64	-0.013916016
56	0x3cfb	0.030639648
57	0xbbee	-0.0072631836
58	0xbc0a	-0.008422852
59	0xbc7b	-0.015319824
60	0x3c07	0.008239746
61	0xbbfe	-0.007751465
62	0x3ab4	0.001373291
63	0x3d2e	0.04248047
64	0x3d07	0.032958984
65	0xba5a	-0.000831604
66	0x3c2e	0.010620117
67	0xbc63	-0.0138549805
68	0xbaf5	-0.0018692017
69	0xbc1b	-0.009460449
70	0xbd46	-0.048339844
71	0xbb13	-0.002243042
72	0x3a7f	0.0009727478
73	0x3c42	0.01184082
74	0x3ceb	0.028686523
75	0x3ba9	0.0051574707
76	0x3c05	0.008117676
77	0x3c2e	0.010620117
78	0x3cd4	0.025878906
79	0xbd6b	-0.057373047
80	0xbce6	-0.028076172
81	0x3bb4	0.005493164
82	0xbd2f	-0.04272461
83	0xba02	-0.00049591064
84	0x3cc2	0.02368164
85	0x3c35	0.011047363
86	0xbd03	-0.031982422
87	0xba7d	-0.0009651184
88	0xbcfc	-0.030761719
89	0x3cb8	0.022460938
90	0x3ce9	0.028442383
91	0x3b90	0.0043945312
92	0xbb8a	-0.004211426
93	0xbba2	-0.0049438477
94	0xbc06	-0.008178711
95	0x3cbb	0.022827148
96	0xbc99	-0.018676758
97	0x3aec	0.0018005371
98	0x3a0c	0.0005340576
99	0x3d08	0.033203125
100	0x3d16	0.036621094
101	0xbc5e	-0.013549805
102	0x3ca3	0.019897461
103	0x3b9c	0.004760742
104	0xbc9a	-0.018798828
105	0xbbf8	-0.0075683594
106	0xbc97	-0.018432617
107	0xbcfe	-0.03100586
108	0x3c6a	0.014282227
109	0x3c90	0.017578125
110	0x3d23	0.039794922
111	0xba55	-0.0008125305
112	0x3c03	0.0079956055
113	0x3d12	0.03564453
114	0xbcb8	-0.022460938
115	0xbd68	-0.056640625
116	0x3ca3	0.019897461
117	0x3cb8	0.022460938
118	0xbc8a	-0.016845703
119	0x3c83	0.015991211
120	0xbd1b	-0.037841797
121	0xbc4f	-0.012634277
122	0x3d1d	0.038330078
123	0x3c96	0.018310547
124	0x3d55	0.052001953
125	0x3c71	0.014709473
126	0xbc0d	-0.008605957
127	0xbd17	-0.036865234
128	0xbbbd	-0.0057678223
129	0xbc55	-0.013000488
130	0xbc3e	-0.01159668
131	0x3d49	0.049072266
132	0xbb9e	-0.0048217773
133	0xbce2	-0.02758789
134	0x3a90	0.0010986328
135	0xbc1b	-0.009460449
136	0x3d76	0.060058594
137	0x3d05	0.032470703
138	0x3c8e	0.017333984
139	0x3b82	0.003967285
140	0x3c4d	0.012512207
141	0xbb8b	-0.0042419434
142	0x3a4a	0.00077056885
143	0xbbd2	-0.0064086914
144	0x3d03	0.031982422
145	0xbc8b	-0.016967773
146	0x3c9f	0.01940918
147	0x3d22	0.03955078
148	0x3c9d	0.019165039
149	0x3cf7	0.030151367
150	0x3c32	0.010864258
151	0x3c93	0.017944336
152	0x3d03	0.031982422
153	0x3bf0	0.0073242188
154	0x3bf3	0.0074157715
155	0xbcb3	-0.021850586
156	0xbc81	-0.01574707
157	0x3a8f	0.0010910034
158	0x3ceb	0.028686523
159	0x3c47	0.012145996
160	0xbc87	-0.016479492
161	0x3bf3	0.0074157715
162	0x3c4a	0.012329102
163	0x3c0c	0.008544922
164	0xbc92	-0.017822266
165	0xbc2b	-0.010437012
166	0xbbda	-0.006652832
167	0x3ca7	0.020385742
168	0xbc92	-0.017822266
169	0x3d1d	0.038330078
170	0xbcaa	-0.020751953
171	0xba28	-0.00064086914
172	0x3c79	0.015197754
173	0xbc54	-0.012939453
174	0x3c3e	0.01159668
175	0xbd4e	-0.05029297
176	0x3d35	0.044189453
177	0x3ba3	0.0049743652
178	0x3cb3	0.021850586
179	0x3d3a	0.045410156
180	0x3c81	0.01574707
181	0xbd09	-0.033447266
182	0xbcc0	-0.0234375
183	0x3cbe	0.02319336
184	0xb98e	-0.0002708435
185	0x3b90	0.0043945312
186	0xbcb2	-0.021728516
187	0xbbce	-0.006286621
188	0x3b8e	0.004333496
189	0xbc35	-0.011047363
190	0x3c46	0.012084961
191	0x3c0b	0.008483887
192	0x3b71	0.0036773682
193	0xbca6	-0.020263672
194	0x3ba7	0.0050964355
195	0x3cc3	0.023803711
196	0xbad7	-0.0016403198
197	0x3cde	0.02709961
198	0xbcf5	-0.029907227
199	0xbd14	-0.036132812
200	0x3ce7	0.028198242
201	0x3d02	0.03173828
202	0xbc0a	-0.008422852
203	0xbb15	-0.0022735596
204	0x3c53	0.012878418
205	0x3b40	0.0029296875
206	0x3ca3	0.019897461
207	0xbbe4	-0.006958008
208	0x3cf6	0.030029297
209	0x3d1e	0.03857422
210	0xbcc8	-0.024414062
211	0xbb9d	-0.0047912598
212	0xbc0e	-0.008666992
213	0x3cef	0.029174805
214	0xbc25	-0.010070801
215	0x3c4b	0.012390137
216	0x3cc7	0.024291992
217	0x3c90	0.017578125
218	0xbca4	-0.020019531
219	0x3d20	0.0390625
220	0xbd45	-0.048095703
221	0xbc49	-0.012268066
222	0x3cfa	0.030517578
223	0x3c34	0.010986328
224	0x3c86	0.016357422
225	0xbcb1	-0.021606445
226	0x3b4d	0.0031280518
227	0xbb33	-0.0027313232
228	0x3cab	0.020874023
229	0xbc0a	-0.008422852
230	0xbb20	-0.0024414062
231	0xbb91	-0.004425049
232	0x3c6e	0.014526367
233	0x3c86	0.016357422
234	0x3bfe	0.007751465
235	0x3c98	0.018554688
236	0x3cbc	0.022949219
237	0xbd30	-0.04296875
238	0x3ce8	0.028320312
239	0x3b99	0.0046691895
240	0xbd60	-0.0546875
241	0x3d15	0.036376953
242	0xbc0c	-0.008544922
243	0xbd21	-0.03930664
244	0xbd3c	-0.045898438
245	0x3c59	0.013244629
246	0x3ceb	0.028686523
247	0x3c92	0.017822266
248	0x3bed	0.007232666
249	0x3d0e	0.03466797
250	0xbc48	-0.012207031
251	0x3c52	0.012817383
252	0x3c9e	0.01928711
253	0xbce2	-0.02758789
254	0xbcdb	-0.026733398
255	0xbba6	-0.005065918

b bf16 [7]
0	0xbba8	-0.005126953
1	0xbb58	-0.0032958984
2	0xbc49	-0.012268066
3	0xbc3d	-0.0115356445
4	0xbc4a	-0.012329102
5	0xbc4a	-0.012329102
6	0xbc4a	-0.012329102
