verbose_output/test_qasrl_to_multiwoz/query/layer_2/best_query_layer2.pt (torch, 12789 bytes, 2 tensors)

W bf16 [7, 768]
000000 9f bc f3 bc 89 3b bd 3b 21 bc fa 3a 92 bc 3c bc
       -0.01940918 -0.029663086 0.004180908 0.0057678223 -0.00982666 0.0019073486 -0.017822266 -0.011474609
000010 17 3c 17 3c 3c bc b1 bb 8d 3c 31 bc e3 3c d0 3b
       0.009216309 0.009216309 -0.011474609 -0.0054016113 0.017211914 -0.010803223 0.027709961 0.0063476562
000020 36 3c 65 bc 70 3c dc bc 02 3b 9d bb 0d 3b 31 bc
       0.011108398 -0.013977051 0.0146484375 -0.026855469 0.0019836426 -0.0047912598 0.0021514893 -0.010803223
000030 40 bc 8e bc ba 3c 95 bb c0 bc 6d bc 81 3b 8e bc
       -0.01171875 -0.017333984 0.022705078 -0.004547119 -0.0234375 -0.014465332 0.0039367676 -0.017333984
000040 aa 3a 4a 3c cb bb 80 3d c7 3c 04 3a e2 3b 08 3d
       0.0012969971 0.012329102 -0.0061950684 0.0625 0.024291992 0.00050354004 0.0068969727 0.033203125
000050 06 3d c8 bb 26 bc a3 bb 26 bd 90 bc 67 bc 20 3c
       0.032714844 -0.0061035156 -0.010131836 -0.0049743652 -0.040527344 -0.017578125 -0.014099121 0.009765625
000060 38 3b d8 3c d4 bc cb 3c d7 3b c5 bc 04 3c 46 bc
       0.0028076172 0.026367188 -0.025878906 0.024780273 0.0065612793 -0.024047852 0.008056641 -0.012084961
000070 02 3d 2d bb a3 bb a7 bc 3f 3c c8 bb 23 3c 31 3d
       0.03173828 -0.0026397705 -0.0049743652 -0.020385742 0.011657715 -0.0061035156 0.0099487305 0.04321289
000080 00 3d 0b bc 67 3b b5 bc 89 bb 45 bb 45 bd 17 bc
       0.03125 -0.008483887 0.0035247803 -0.022094727 -0.004180908 -0.0030059814 -0.048095703 -0.009216309
000090 3c 3b ab 3b 99 3c 78 3a 89 3c 0d 3c 81 3c 5e bd
       0.0028686523 0.005218506 0.018676758 0.0009460449 0.016723633 0.008605957 0.01574707 -0.05419922
0000a0 98 bc 08 3c 37 bd a9 ba 04 3d 40 3c 01 bd c2 3a
       -0.018554688 0.008300781 -0.044677734 -0.0012893677 0.032226562 0.01171875 -0.03149414 0.0014801025
0000b0 ea bc be 3c fc 3c 3d bb 38 3b b2 3b a2 ba a9 3c
       -0.028564453 0.02319336 0.030761719 -0.0028839111 0.0028076172 0.005432129 -0.0012359619 0.020629883
0000c0 20 bc c4 b9 9c bb dd 3c 13 3d 80 bc 71 3c 98 3b
       -0.009765625 -0.00037384033 -0.004760742 0.026977539 0.035888672 -0.015625 0.014709473 0.004638672
0000d0 47 bc a4 bb 13 bc bc bc ca 3b 8b 3c 0c 3d 69 3b
       -0.012145996 -0.005004883 -0.008972168 -0.022949219 0.006164551 0.016967773 0.034179688 0.0035552979
0000e0 1b 3c 0c 3d 77 bc 52 bd 9c 3c 00 3d a8 bb 88 3c
       0.009460449 0.034179688 -0.015075684 -0.05126953 0.019042969 0.03125 -0.005126953 0.016601562
0000f0 1d bd 8f bc 04 3d c8 3c 4a 3d 97 3c 6b bb 0c bd
       -0.038330078 -0.017456055 0.032226562 0.024414062 0.049316406 0.018432617 -0.0035858154 -0.034179688
000100 81 3b b0 bc da bb 27 3d fe bb 00 bd c3 3b 1a bc
       0.0039367676 -0.021484375 -0.006652832 0.040771484 -0.007751465 -0.03125 0.0059509277 -0.009399414
000110 73 3d 03 3d 8a 3c 7c 3b f2 3b 20 3b ac bb ad bb
       0.059326172 0.031982422 0.016845703 0.0038452148 0.007385254 0.0024414062 -0.0052490234 -0.005279541
000120 d2 3c 21 bc f0 3c 0b 3d 8c 3c e6 3c 49 3c 93 3c
       0.025634766 -0.00982666 0.029296875 0.033935547 0.017089844 0.028076172 0.012268066 0.017944336
000130 d8 3c b7 3b b8 3b c6 bc 20 bc 8e 39 e1 3c 7f 3c
       0.026367188 0.005584717 0.0056152344 -0.024169922 -0.009765625 0.0002708435 0.02746582 0.015563965
000140 c9 bc a0 ba c2 3b 0e 3b 8c bc 17 bc 4c bc c2 3c
       -0.024536133 -0.0012207031 0.00592041 0.002166748 -0.017089844 -0.009216309 -0.012451172 0.02368164
000150 8b bc 18 3d 90 bc 30 39 b3 3c 3e bc 42 3b 40 bd
       -0.016967773 0.037109375 -0.017578125 0.00016784668 0.021850586 -0.01159668 0.002960205 -0.046875
000160 31 3d 3a 3c 84 3c 1e 3d 9b 3c 03 bd fa bc b8 3c
       0.04321289 0.011352539 0.016113281 0.03857422 0.018920898 -0.031982422 -0.030517578 0.022460938
000170 4a bb 19 3b f5 bc 69 bc 1e 3b 50 bc c0 3c 2d 3c
       -0.0030822754 0.0023345947 -0.029907227 -0.014221191 0.0024108887 -0.0126953125 0.0234375 0.010559082
000180 98 ba bf bc c4 3a a9 3c ec 39 d3 3c f4 bc cb bc
       -0.001159668 -0.02331543 0.0014953613 0.020629883 0.00045013428 0.025756836 -0.029785156 -0.024780273
000190 b1 3c ac 3c 6b 3b 13 bb fc 3b 30 3b da 3c b4 bb
       0.021606445 0.020996094 0.0035858154 -0.002243042 0.0076904297 0.0026855469 0.026611328 -0.005493164
0001a0 f8 3c 26 3d ae bc d3 bb 36 bc cc 3c 88 bc 23 3c
       0.030273438 0.040527344 -0.021240234 -0.006439209 -0.011108398 0.024902344 -0.016601562 0.0099487305
0001b0 c3 3c 83 3c b7 bc 1c 3d 42 bd 56 bc e1 3c 43 3c
       0.023803711 0.015991211 -0.022338867 0.038085938 -0.04736328 -0.013061523 0.02746582 0.0119018555
0001c0 4d 3c ba bc 16 3b 52 3b e6 3c 63 bb 0e bb 09 bc
       0.012512207 -0.022705078 0.0022888184 0.0032043457 0.028076172 -0.0034637451 -0.002166748 -0.008361816
0001d0 7f 3c 35 3c 60 3c 85 3c 9e 3c 50 bd bf 3c 1d bb
       0.015563965 0.011047363 0.013671875 0.016235352 0.01928711 -0.05078125 0.02331543 -0.0023956299
0001e0 5d bd 16 3d 72 bb 18 bd 1b bd 4e 3c fd 3c a1 3c
       -0.053955078 0.036621094 -0.003692627 -0.037109375 -0.037841797 0.012573242 0.030883789 0.01965332
0001f0 53 3c 07 3d 66 bc 16 3c 1f 3c 0c bd a7 bc 0a bb
       0.012878418 0.032958984 -0.014038086 0.009155273 0.00970459 -0.034179688 -0.020385742 -0.002105713

b bf16 [7]
000000 5f bb 3d bb 44 bc 33 bc 46 bc 4a bc 3f bc
       -0.00340271 -0.0028839111 -0.011962891 -0.010925293 -0.012084961 -0.012329102 -0.011657715
