verbose_output/test_qasrl_to_multiwoz/query/layer_1/best_query_layer1.pt (torch, 12789 bytes, 2 tensors)

W bf16 [7, 768]
000000 aa bc f8 bc 54 3c a3 3b dd bb 60 3a a5 bc 38 bc
       -0.020751953 -0.030273438 0.012939453 0.0049743652 -0.0067443848 0.0008544922 -0.020141602 -0.011230469
000010 13 3c 07 3c 2a bc 9f bb 80 3c 24 bc d6 3c d6 3b
       0.008972168 0.008239746 -0.010375977 -0.004852295 0.015625 -0.010009766 0.026123047 0.0065307617
000020 4b 3c 59 bc a2 3c dc bc 14 3b 81 bb 73 3b 2d bc
       0.012390137 -0.013244629 0.01977539 -0.026855469 0.0022583008 -0.0039367676 0.0037078857 -0.010559082
000030 49 bc 8e bc 9e 3c af bb ed bc a1 bc 5a 3b 9a bc
       -0.012268066 -0.017333984 0.01928711 -0.005340576 -0.028930664 -0.01965332 0.003326416 -0.018798828
000040 3f 3b 92 3c 94 bb 63 3d df 3c 8e 3a 03 3c 05 3d
       0.0029144287 0.017822266 -0.0045166016 0.055419922 0.02722168 0.001083374 0.0079956055 0.032470703
000050 01 3d 94 bb 2b bc 26 3b 13 bd 49 bc 82 bc 0f 3c
       0.03149414 -0.0045166016 -0.010437012 0.002532959 -0.035888672 -0.012268066 -0.01586914 0.008728027
000060 43 bb c5 3c cb bc b7 3c ae 3a a2 bc 1b 3c 54 bc
       -0.0029754639 0.024047852 -0.024780273 0.022338867 0.0013275146 -0.01977539 0.009460449 -0.012939453
000070 00 3d 00 bc ca bb 87 bc 43 3c e0 bb 1b 3c 28 3d
       0.03125 -0.0078125 -0.006164551 -0.016479492 0.0119018555 -0.0068359375 0.009460449 0.041015625
000080 f8 3c 07 bc 8c 3b c3 bc 43 bc 3e 3a 41 bd 44 bc
       0.030273438 -0.008239746 0.004272461 -0.023803711 -0.0119018555 0.0007247925 -0.04711914 -0.011962891
000090 a4 3b cc 3b 9a 3c 6a 3a 67 3c 19 3c 84 3c 63 bd
       0.005004883 0.006225586 0.018798828 0.00089263916 0.014099121 0.009338379 0.016113281 -0.055419922
0000a0 9e bc 23 3c 30 bd 10 ba 08 3d 56 3c ff bc 1d 3a
       -0.01928711 0.0099487305 -0.04296875 -0.0005493164 0.033203125 0.013061523 -0.03112793 0.00059890747
0000b0 9f bc c7 3c 01 3d 48 bb c8 3a be 3b 06 b9 ad 3c
       -0.01940918 0.024291992 0.03149414 -0.0030517578 0.0015258789 0.00579834 -0.00012779236 0.021118164
0000c0 16 bc a9 b9 54 bb d4 3c 18 3d 7e bc 5a 3c 87 3c
       -0.009155273 -0.00032234192 -0.0032348633 0.025878906 0.037109375 -0.01550293 0.013305664 0.016479492
0000d0 54 bc a4 bb 12 bc d6 bc a4 3b 6c 3c 0f 3d ae 3b
       -0.012939453 -0.005004883 -0.008911133 -0.026123047 0.005004883 0.014404297 0.03491211 0.0053100586
0000e0 4c 3c eb 3c 47 bc 47 bd a0 3c 01 3d 18 bc 8e 3c
       0.012451172 0.028686523 -0.012145996 -0.048583984 0.01953125 0.03149414 -0.009277344 0.017333984
0000f0 05 bd a3 bc 05 3d d1 3c 59 3d 95 3c 2a bc 13 bd
       -0.032470703 -0.019897461 0.032470703 0.025512695 0.052978516 0.018188477 -0.010375977 -0.035888672
000100 23 3b cb bc c5 bb 24 3d 31 bb e9 bc 23 3b 13 bc
       0.0024871826 -0.024780273 -0.006011963 0.040039062 -0.0027008057 -0.028442383 0.0024871826 -0.008972168
000110 70 3d f6 3c 9e 3c 18 3b c3 3b bd bb ff ba b4 bb
       0.05859375 0.030029297 0.01928711 0.002319336 0.0059509277 -0.0057678223 -0.0019454956 -0.005493164
000120 cd 3c 1f bc a6 3c 05 3d 8f 3c e1 3c 96 3c 99 3c
       0.025024414 -0.00970459 0.020263672 0.032470703 0.017456055 0.02746582 0.018310547 0.018676758
000130 c9 3c cf 3b d8 3b ee bc 2b bc 77 b8 d9 3c 86 3c
       0.024536133 0.0063171387 0.006591797 -0.029052734 -0.010437012 -5.888939e-05 0.026489258 0.016357422
000140 cd bc ea ba 4d 3c f4 39 ca bc 26 bc 4d bc af 3c
       -0.025024414 -0.0017852783 0.012512207 0.00046539307 -0.024658203 -0.010131836 -0.012512207 0.021362305
000150 85 bc 1a 3d 90 bc 73 3a ba 3c a6 bb 82 3b 2a bd
       -0.016235352 0.037597656 -0.017578125 0.00092697144 0.022705078 -0.005065918 0.003967285 -0.041503906
000160 39 3d 87 3c b4 3c 40 3d a1 3c be bc 07 bd c3 3c
       0.045166016 0.016479492 0.021972656 0.046875 0.01965332 -0.02319336 -0.032958984 0.023803711
000170 a7 bb fa 3b b5 bc 7a bc 7c 3a 52 bc c9 3c 29 3c
       -0.0050964355 0.0076293945 -0.022094727 -0.015258789 0.0009613037 -0.012817383 0.024536133 0.010314941
000180 9f ba c2 bc 49 ba b0 3c ff 3b 92 3c f8 bc fc bc
       -0.0012130737 -0.02368164 -0.00076675415 0.021484375 0.0077819824 0.017822266 -0.030273438 -0.030761719
000190 e6 3c ee 3c 18 3b 46 bb de 3b 5e 3a cb 3c ef bb
       0.028076172 0.029052734 0.002319336 -0.0030212402 0.0067749023 0.0008468628 0.024780273 -0.007293701
0001a0 f5 3c 13 3d 9e bc b3 bb 32 bc b3 3c 74 bc 3a 3c
       0.029907227 0.035888672 -0.01928711 -0.0054626465 -0.010864258 0.021850586 -0.014892578 0.011352539
0001b0 c5 3c 85 3c be bc 1b 3d 23 bd 4a bc bf 3c 48 3b
       0.024047852 0.016235352 -0.02319336 0.037841797 -0.039794922 -0.012329102 0.02331543 0.0030517578
0001c0 4e 3c ab bc 04 3c 1e bb cf 3c 1e bb 84 ba f6 bb
       0.012573242 -0.020874023 0.008056641 -0.0024108887 0.025268555 -0.0024108887 -0.0010070801 -0.007507324
0001d0 86 3c 20 3c c5 3b 8a 3c c7 3c 3b bd aa 3c 28 ba
       0.016357422 0.009765625 0.006011963 0.016845703 0.024291992 -0.045654297 0.020751953 -0.00064086914
0001e0 55 bd 1a 3d c9 bb 0f bd 27 bd 53 3c fe 3c 9f 3c
       -0.052001953 0.037597656 -0.006134033 -0.03491211 -0.040771484 0.012878418 0.03100586 0.01940918
0001f0 3e 3c 0a 3d 5f bc 21 3c 8d 3c 12 bd 9e bc 3b bb
       0.01159668 0.033691406 -0.01361084 0.00982666 0.017211914 -0.03564453 -0.01928711 -0.0028533936

b bf16 [7]
000000 87 bb 30 bb 46 bc 37 bc 47 bc 4a bc 40 bc
       -0.004119873 -0.0026855469 -0.012084961 -0.011169434 -0.012145996 -0.012329102 -0.01171875
