verbose_output/test_qasrl_to_multiwoz/query/layer_3/best_query_layer3.pt (torch, 12789 bytes, 2 tensors)

W bf16 [7, 768]
-0.019042969 -0.030639648 0.0060424805 0.002166748 -0.0079956055 0.005584717 -0.021728516 -0.010437012
0.010864258 0.006958008 -0.01373291 -0.0034484863 0.01977539 -0.009155273 0.03173828 0.0050354004
0.018188477 -0.016723633 0.016357422 -0.025634766 8.583069e-05 0.002243042 -1.13248825e-05 -0.014953613
-0.0071105957 -0.012634277 0.021606445 -0.0022583008 -0.024536133 -0.0146484375 0.0010299683 -0.014404297
0.0038146973 0.0099487305 -0.0019683838 0.05859375 0.025390625 -0.0018920898 0.0055236816 0.03466797
0.034423828 -0.005554199 -0.008422852 -0.00039291382 -0.037597656 -0.017944336 -0.013000488 0.012573242
0.0015716553 0.03125 -0.028320312 0.024658203 0.0031585693 -0.021850586 0.0058898926 -0.010070801
0.03173828 -0.0032958984 -0.0046081543 -0.018676758 0.011962891 -0.004486084 0.007385254 0.043701172
0.028686523 -0.0056762695 0.005432129 -0.01965332 -0.0049743652 -0.0054626465 -0.046875 -0.01171875
0.007232666 0.007293701 0.022705078 0.0013504028 0.015380859 0.0070495605 0.018554688 -0.053466797
-0.02355957 0.009338379 -0.045166016 -0.004699707 0.031982422 0.011230469 -0.033203125 0.0025939941
-0.024658203 0.026245117 0.03173828 0.0007095337 -0.0027923584 -0.0012893677 -0.0032958984 0.014831543
-0.010681152 0.001373291 -0.002960205 0.028686523 0.033203125 -0.017211914 0.013793945 0.009338379
-0.0134887695 -0.0058898926 -0.011962891 -0.024780273 0.007507324 0.020874023 0.036132812 0.004699707
0.010498047 0.030517578 -0.015258789 -0.053222656 0.017456055 0.026489258 -0.01361084 0.01940918
-0.036865234 -0.018920898 0.032226562 0.021972656 0.051757812 0.017333984 -0.005004883 -0.030029297
0.00039100647 -0.015197754 -0.0029907227 0.041992188 -0.010253906 -0.028564453 0.009033203 -0.014709473
0.057617188 0.029418945 0.01953125 0.0059509277 0.012084961 -0.0014038086 0.0046081543 -0.003250122
0.026611328 -0.016479492 0.028320312 0.043701172 0.015380859 0.022827148 0.0134887695 0.020996094
0.025512695 0.0034179688 0.0045166016 -0.026123047 -0.011474609 -0.0016784668 0.026733398 0.010986328
-0.020385742 0.0034637451 0.0058898926 0.0033874512 -0.022583008 -0.0074157715 -0.012084961 0.024536133
-0.013977051 0.030761719 -0.012634277 0.002319336 0.020019531 -0.011230469 0.005859375 -0.04711914
0.043701172 0.0107421875 0.021484375 0.041503906 0.017456055 -0.030517578 -0.02758789 0.020629883
0.0039978027 0.0013656616 -0.022338867 -0.013671875 0.0016937256 -0.010925293 0.017578125 0.012084961
0.00093460083 -0.024780273 0.0067749023 0.018920898 0.0018386841 0.024658203 -0.02746582 -0.03149414
0.024780273 0.028930664 9.1552734e-05 -0.0036621094 0.009094238 0.0017929077 0.026855469 -0.0046691895
0.031982422 0.044921875 -0.019897461 -0.008605957 -0.008911133 0.022949219 -0.016479492 0.008483887
0.029785156 0.014343262 -0.020019531 0.040527344 -0.046875 -0.008239746 0.026977539 0.00793457
0.012573242 -0.024780273 0.0048217773 -0.0037078857 0.026000977 -0.00680542 -0.008056641 -0.008178711
0.012023926 0.0134887695 0.013793945 0.014526367 0.02319336 -0.04638672 0.026000977 0.001953125
-0.052978516 0.038330078 -0.007537842 -0.037597656 -0.041015625 0.011291504 0.03515625 0.021118164
0.010253906 0.030883789 -0.013793945 0.010681152 0.0154418945 -0.029418945 -0.02319336 -0.0011367798
00000000: 9cbc fbbc c63b 0e3b 03bc b73b b2bc 2bbc
00000010: 323c e43b 61bc 62bb a23c 16bc 023d a53b
00000020: 953c 89bc 863c d2bc b438 133b 3eb7 75bc
00000030: e9bb 4fbc b13c 14bb c9bc 70bc 873a 6cbc
00000040: 7a3b 233c 01bb 703d d03c f8ba b53b 0e3d
00000050: 0d3d b6bb 0abc ceb9 1abd 93bc 55bc 4e3c
00000060: ce3a 003d e8bc ca3c 4f3b b3bc c13b 25bc
00000070: 023d 58bb 97bb 99bc 443c 93bb f23b 333d
00000080: eb3c babb b23b a1bc a3bb b3bb 40bd 40bc
00000090: ed3b ef3b ba3c b13a 7c3c e73b 983c 5bbd
000000a0: c1bc 193c 39bd 9abb 033d 383c 08bd 2a3b
000000b0: cabc d73c 023d 3a3a 37bb a9ba 58bb 733c
000000c0: 2fbc b43a 42bb eb3c 083d 8dbc 623c 193c
000000d0: 5dbc c1bb 44bc cbbc f63b ab3c 143d 9a3b
000000e0: 2c3c fa3c 7abc 5abd 8f3c d93c 5fbc 9f3c
000000f0: 17bd 9bbc 043d b43c 543d 8e3c a4bb f6bc
00000100: cd39 79bc 44bb 2c3d 28bc eabc 143c 71bc
00000110: 6c3d f13c a03c c33b 463c b8ba 973b 55bb
00000120: da3c 87bc e83c 333d 7c3c bb3c 5d3c ac3c
00000130: d13c 603b 943b d6bc 3cbc dcba db3c 343c
00000140: a7bc 633b c13b 5e3b b9bc f3bb 46bc c93c
00000150: 65bc fc3c 4fbc 183b a43c 38bc c03b 41bd
00000160: 333d 303c b03c 2a3d 8f3c fabc e2bc a93c
00000170: 833b b33a b7bc 60bc de3a 33bc 903c 463c
00000180: 753a cbbc de3b 9b3c f13a ca3c e1bc 01bd
00000190: cb3c ed3c c038 70bb 153c eb3a dc3c 99bb
000001a0: 033d 383d a3bc 0dbc 12bc bc3c 87bc 0b3c
000001b0: f43c 6b3c a4bc 263d 40bd 07bc dd3c 023c
000001c0: 4e3c cbbc 9e3b 73bb d53c dfbb 04bc 06bc
000001d0: 453c 5d3c 623c 6e3c be3c 3ebd d53c 003b
000001e0: 59bd 1d3d f7bb 1abd 28bd 393c 103d ad3c
000001f0: 283c fd3c 62bc 2f3c 7d3c f1bc bebc 95ba

b bf16 [7]
-0.0017547607 -0.00390625 -0.01159668 -0.010498047 -0.01171875 -0.011962891 -0.011474609
00000000: e6ba 80bb 3ebc 2cbc 40bc 44bc 3cbc
